checkpoint_ddqn.pth (torch_old, 28415 bytes, 6 tensors)

fc1.weight f4 [64, 37]
00000000: 9de8 87be 1e53 d63d 869c a6bd 0ee7 cb3d
00000010: 6806 ef3d 48e5 57bd 5a94 c0bd 773c 583e
00000020: 2051 c43d 77bf e3bd ed1e 0abe 7d02 153d
00000030: 9ce9 ef3b d4bd 55be 898c 8d3d 3ace 8ebe
00000040: 6b0a 0f3e 9679 453d 3d62 ad3d 03ed 3bbe
00000050: 6453 2c3c a6e5 733e 2927 d7bc 285e abbc
00000060: 38dd cebe 06e5 0c3d daa9 133e 77b0 fabd
00000070: 6a40 7abe b548 12be bb2c 6cbe d454 363e
00000080: 7db0 b23d c46a a33c 25f9 5e3c 83b5 2c3d
00000090: 11be 04bd 9077 3e3e 281b 863e b407 563b
000000a0: bef9 a6be 535c 0bbf bbd1 03be 52a1 e53c
000000b0: 9935 31be 389e b6bd fceb a8be 4d61 853d
000000c0: 0c90 babd ff09 a4bc fe9d 853e 680d 3bbd
000000d0: b4db a43d 0dbd 3a3d 3267 95bd a4a0 133e
000000e0: 48ce e73c 9f02 81be be56 593d aac9 83bd
000000f0: 9381 0cbe fc24 3a3c e4ee 8ebe acaa a83d
00000100: cf1d 653d 4f80 773e ce33 263c f0a5 febd
00000110: 2e35 023d 10bd 933e 3c38 b63d f9b0 8ebd
00000120: 2c15 563c 820a 603c b1fc 443e e7f8 ff3c
00000130: 3430 3fbd 43c7 88bb cb8c e03d 559b 73bf
00000140: 2847 10bc d212 373e 1d41 863e ad61 14bf
00000150: c494 53bd 5e6f 583d c14e c93c d968 9abe
00000160: 96b4 40bd 3ea0 fabc 416d 03be 2283 513e
00000170: ce57 4e3a 6dae 023e 8d9e d2be f187 513a
00000180: 397b 123e c800 21be 4b75 103c 47a0 12bf
00000190: 342f a13e f1b1 c93d 74fc 563e a296 3f3e
000001a0: 7c0f c0be 1ae7 69bc c49d b63d d559 6ebe
000001b0: 4f08 75bd 9741 2fbc f47f 11bd 4d55 6fbd
000001c0: ebd8 2d3e 8f3d 2e3e 1251 1bbd 5c74 e0be
000001d0: 7344 7ebb e3dc b53d 3816 5a3e 0e28 50bd
000001e0: b570 f5be c26b f9ba 13fc f63d 208e 203d
000001f0: b835 d9be f657 e7be 880d 3a3e a2f7 fabd
00000200: a566 03be 9513 d1be 11eb eebe 4c3c 5f3e
00000210: 144f 59bb 984a 533d e1c9 8ebe 0ca6 98be
00000220: 38e9 d3bd dca7 913c cfd0 4f3e 21b4 b3be
00000230: 8030 e0be e6af 993d c1ef bb3c 6860 8d3e
00000240: a4a3 2bbf 56a8 b9be fe06 2bbc 9129 66bd
00000250: dcc0 2dbe 5c4a 0fbe b92b 44be 7c83 02bd
00000260: 3fa0 86bd 8392 f53d 8cd9 96bd d0c5 d9bd
00000270: 4781 953e a820 9f3e a84f d53d 09fe 71be
00000280: ccc9 cabd 6f2b 89bd 3eb4 d7be 29cd eebd
00000290: c8d0 4ebc f25a 82bc cb51 31be 7bef 693b
000002a0: 098c c1bc 7a0c 3ebe 922c a03d 4d9f a6bd
000002b0: 6acc 5e3d 5c39 dd3d bf70 75be 6665 5f3e
000002c0: 9827 45be 027d 0b3e 591d 9f3d 8072 5bbe
000002d0: 4270 c5b9 caeb a23b a3ea 5b3e 6641 503d
000002e0: 3e19 afbc c9b7 f03c 5a6e 0bbc dda1 e1bc
000002f0: 571b 443d 6682 0b3e 7ffa a23e cd83 313d
00000300: 58a9 d1be 726e bcbe 885e acbf b45f d5bc
00000310: 8ff0 3d3d 81dc adbd 7d40 fdbc b92a b63d
00000320: 3de4 9a3c 91d8 fe3d 7d6b 9bbd 41a7 08bc
00000330: 8b2c cabb 2d37 353d ecff fb3d 3e7b 433d
00000340: b294 793e 41b2 1abd 6bfd 2e3d 5825 75bc
00000350: 0112 943c 1a02 df3d 1797 b73b a5e6 513d
00000360: 01e4 a7bd c1d1 0439 a7b5 563d 6584 66be
00000370: 7c3b 893d 73ef 383c 7d33 84be 134e 39bd
00000380: 0b3c 82be 83ae febe 8d87 68be e95c 7d3c
00000390: 37af dcbe 9382 b33c 8017 b8be dd32 96bd
000003a0: 7c30 2cbe b9f7 da3d 05be 01bf ce98 babe
000003b0: a3c5 213e f42d 42be f60a 4dbe ac5a 81be
000003c0: 1371 3fbd 1c6b c8bd d498 0ebf 73d2 59be
000003d0: b1c3 7bbe d21f bcbc 5bf6 96be a356 e4be
000003e0: 3d48 3ebe 9e63 bbbd 0639 99be 80be 1cbe
000003f0: adde dcbd fb82 d4bd 672f e7be aaa8 a1be
-0.26544657 0.10465072 -0.08135323 0.099561796 0.11671144 -0.052708894 -0.09403296 0.21116816
0.09585786 -0.111205034 -0.1348836 0.036379326 0.0073215496 -0.20873195 0.069115706 -0.27891713
0.13968818 0.048211657 0.08466003 -0.18352132 0.010517929 0.23818073 -0.02626379 -0.02091892
-0.40403152 0.0343981 0.14420262 -0.12240689 -0.24438635 -0.14285548 -0.23063938 0.17805797
0.08725069 0.01994837 0.013609205 0.04216529 -0.032407824 0.18600297 0.26192594 0.00326584
-0.32612413 -0.5443775 -0.12872975 0.028031025 -0.17305602 -0.089168966 -0.32992542 0.06512699
-0.09109506 -0.020024298 0.260971 -0.045667082 0.080497175 0.04559045 -0.072950736 0.14416748
0.028296605 -0.25197312 0.05306124 -0.06434949 -0.13721304 0.011361357 -0.27916634 0.08235678
0.05593663 0.2417004 0.010144187 -0.12433994 0.031788997 0.2885518 0.088974446 -0.069673486
0.013066571 0.01367438 0.19237019 0.031246616 -0.04667683 -0.0041741445 0.10964354 -0.9515889
-0.0088060275 0.17878273 0.26221552 -0.5796154 -0.051655546 0.052840583 0.024573686 -0.30158117
-0.04704722 -0.030593988 -0.12834646 0.2046018 0.000787136 0.1276185 -0.4113659 0.0007992974
0.14304818 -0.15722954 0.008817027 -0.57275814 0.31481326 0.09848393 0.2099474 0.18709806
-0.37511814 -0.01427629 0.0891681 -0.23276456 -0.059822377 -0.01069679 -0.035522416 -0.05843096
0.16977279 0.1701567 -0.03791911 -0.43838775 -0.0038798123 0.088800214 0.21297538 -0.05081945
-0.4793755 -0.0019029307 0.12059798 0.03919804 -0.42423797 -0.45184296 0.18169224 -0.122542635
-0.12832125 -0.40835252 -0.46663716 0.21800345 -0.0033158707 0.05158481 -0.27888396 -0.29814184
-0.10347217 0.017780237 0.20294498 -0.35098365 -0.43787003 0.07504253 0.022941472 0.27612615
-0.6704657 -0.36261243 -0.010438679 -0.056191985 -0.16968101 -0.1399321 -0.19157304 -0.031863675
-0.06573533 0.119908355 -0.073657125 -0.10633433 0.29200193 0.31079602 0.10415584 -0.23632063
-0.09901771 -0.066977374 -0.421297 -0.11660225 -0.0126230195 -0.015912507 -0.17316358 0.003569572
-0.023626344 -0.18559447 0.07821001 -0.08135853 0.054394163 0.10801956 -0.2396879 0.21816024
-0.19253385 0.13621905 0.077692695 -0.21430397 -0.00037658407 0.004971956 0.21476226 0.05084362
-0.021374341 0.02938451 -0.008510197 -0.027543003 0.047877636 0.13623962 0.31831738 0.043338586
-0.40949512 -0.36803013 -1.3466349 -0.026046611 0.046371993 -0.084893234 -0.03091454 0.088948674
0.01890766 0.124436505 -0.07588861 -0.008340658 -0.0061698607 0.044242073 0.123046726 0.047724955
0.24373129 -0.037767652 0.042722147 -0.014962517 0.018074991 0.10889073 0.005602728 0.05124535
-0.08197785 0.0001266664 0.05241933 -0.22511442 0.06700799 0.011287558 -0.25820532 -0.045240473
-0.25436434 -0.49742517 -0.22707959 0.015464046 -0.43102428 0.021912849 -0.3595543 -0.0733392
-0.1681537 0.106917806 -0.5068057 -0.36444706 0.15798049 -0.18962842 -0.20023713 -0.2526449
-0.046738695 -0.097860545 -0.5570195 -0.21271686 -0.24586369 -0.022964392 -0.2948483 -0.4459735
-0.18582244 -0.0914986 -0.29926318 -0.15307045 -0.107846595 -0.10376545 -0.45153353 -0.31573993

fc1.bias f4 [64]
00000000: 8641 163d c8d9 d3bd c575 27be 0751 7f3d
00000010: 857d ba3d c325 ddbc 89df 7fbe d4ab 913c
00000020: 3832 783d cff8 85be c9e2 ae3e 020f 4c3e
00000030: c4a7 013e 5431 393e acee c6bd 2580 bebd
00000040: bc88 013e 2377 b53d 5695 1dbd 942a 79be
00000050: 30f9 5fbe b856 303d c28e 393e ce88 72be
00000060: 89ec 1cbe 1eaf 413e 0631 9abd 9394 edbd
00000070: 5ea5 973b fc97 103e 0f53 08be 80c7 2abe
00000080: c3fd 2b3e 9bfb 83bb bd47 9ebc 447e 733b
00000090: 322d f93d e18d 253e 5e5e 7cbd 39b8 22be
000000a0: 96c4 c9bd 504d 09be 9cf2 713d c21a b53e
000000b0: 2552 053e ffab 57bd 3fa5 6f3d d54d 83be
000000c0: 81d3 dcbd bb5f d13d 8227 febd e36b b8bd
000000d0: 5957 4a3d dc2b 56be 9c6d 27be 2fb3 99bd
000000e0: 1d47 953d 41ba 94bd f6cf edbd 84e0 2abe
000000f0: de71 0ebd 20ca 4ebd 7c80 823d caf4 5e3c
0.03668358 -0.10344273 -0.1635352 0.062333133 0.09105972 -0.026995545 -0.24987616 0.01778213
0.060594767 -0.26166388 0.34157398 0.199276 0.12661654 0.18085223 -0.09713492 -0.093017854
0.12649816 0.08860614 -0.038472496 -0.24332649 -0.21872401 0.04305145 0.18120864 -0.23685
-0.15324606 0.18914458 -0.07528882 -0.11600604 0.0046278676 0.14120477 -0.13312934 -0.16677666
0.16796021 -0.0040277964 -0.019321317 0.0037154118 0.121668234 0.16167404 -0.061613433 -0.15890588
-0.09851949 -0.13408399 0.05906926 0.35371977 0.13019617 -0.052654263 0.0585072 -0.2564532
-0.10782529 0.10223337 -0.12409879 -0.09004953 0.049399707 -0.20915169 -0.16350406 -0.0750488
0.072889544 -0.072620876 -0.11611931 -0.16687208 -0.03477656 -0.05048573 0.06372163 0.013608167

fc2.weight f4 [64, 64]
00000000: 72e1 6bbc 69f9 71bc 20ae 173e c021 7fbd
00000010: 0c2c 9abd 5494 49be bd3a b1bd 9a17 bfbe
00000020: d9af 01be 3537 4fbd ac91 f4bb 3fc0 0ebe
00000030: 20f0 14be d016 623d 7c48 b8bd 19d7 0f3d
00000040: 1556 31be 553a c73d dcec 393e 1c80 4c3e
00000050: e614 0b3c d592 84bc 73aa 063e c2fe 203e
00000060: bffb 30be acef 3bbe e593 8b3e fd60 833d
00000070: 8cb4 503e 47a4 90bd 46f5 8b3d 97cb 58be
00000080: 0c13 603d c86d 083e 4a2c 093d 1067 2b3e
00000090: 4f50 a2bd e05d 693c 4cbb 2bbd b879 9abd
000000a0: ee97 81be 0550 933d a7f5 913e 9f91 cb3b
000000b0: 37e1 e33d 0727 71be a041 87be 6a16 05be
000000c0: 697e 16be 87f5 b3be f93d 4bbe 7517 7fbd
000000d0: 7394 b0bd b086 abbc f5e1 60bd 88d6 cb3d
000000e0: 2b91 6138 83d5 85be bac2 6ebe 3d37 6e3e
000000f0: 2b8e af3d efa5 8dbd e5cd 5bbe 0672 093f
00000100: 4809 993c 4211 0b3e 7786 b9be 6d57 023e
00000110: 9125 2ebc 66d2 393e e8ab d43d abfe b83d
00000120: a3aa 2b3e bb1a b6bd 19e9 d7bc 5702 0b3e
00000130: 15e3 eebe 1066 513d 4db9 61be 2a47 9e3d
00000140: 25b3 943d 1959 08be a056 00be d800 c33c
00000150: b8c3 833e c66b 25bf 83d7 f43c 99db 70be
00000160: c65a 6b3e 7bad 103e df4e 3bbe 1367 623d
00000170: 3a76 193c c7d6 6bbd 8e2c ccbe 83a2 63be
00000180: c994 17be 9d62 5d3c fd49 0cbc 120c 86be
00000190: b39a 1bbc df9c 113d d377 ccbe 4014 8abe
000001a0: 0013 bb3d d6fd 3c3c f644 30be 7b1e 81bd
000001b0: 69db babd dbd6 5fbd 9d2f 66bd 4853 283d
000001c0: 20a0 073e f4c8 2bbe 0493 cdbd 5e41 c1bc
000001d0: 7ef2 66bc eee2 a33e 6e6f 283e dc03 d3bd
000001e0: 546c 993d 8cfb cfbe 95e8 a03d 0a29 033e
000001f0: 0126 abbe e86f 26bd 1f4a 913c 1516 d5be
00000200: 6cd5 ccbd 2ed0 ebbd c5d7 f83b 1955 4a3d
00000210: 3cda 813c bbf4 ee3c 06ff 8ebe d305 f8bc
00000220: 15d6 a83d 4495 a7bd b222 0e3e a6db 5e3d
00000230: 269f 3d3d feeb 213e 7b9e aaba 99c2 923c
00000240: c7cb 41bd c948 6abe 3c93 c43d 07c5 29be
00000250: 40e6 63be 4fcf be3d 777b c63d 71fe f5bc
00000260: 5920 673c e183 0f3e 77ee 1a3e 69c7 1dbe
00000270: ea68 983d a6ef e73d fc52 7b3e 3a71 a4ba
00000280: eb30 35be 93ab 7f3d f84f 04be 4852 2e3d
00000290: b45c 423e adc4 3f3e 6b2e b43c c737 6dbd
000002a0: 1dd9 8a3e f3ae 8fbe e67e f7be 191d 85bc
000002b0: a97c 8e3d fd90 6abc 443e b23d 811b 83be
000002c0: 3cbb 2d3c 3c59 1fbe 8e06 793d 069d 0ebe
000002d0: 093e 91be 0757 d0bd 092d 63bd 2fa9 07be
000002e0: 158b 9fbc f1ae aa3c f290 c13d e202 5f3d
000002f0: 03fe 01be fed8 3a3d 1c99 bb3c be28 083e
00000300: 23ea 74bd f8d3 10be 25af a23d 5aa7 f8bd
00000310: d5ca 90bd a8c6 4abd 29a5 52bd 73ba 90bd
00000320: 94ca 21be ae4e 7e3c bee7 28bd f2df 923d
00000330: d045 12bd ac4c 863d f15a 8c3b 439b 9bbd
00000340: c054 45bd f4b2 d6bb 7125 eebc 28ef 15bd
00000350: 37a8 013c 8c57 af3d 51e9 96bc 5f80 9f3c
00000360: b260 703d f0b6 823b 000e 803d 2d17 533d
00000370: 94b5 013e 6c8d 41be 1028 b53c 6daf 08bd
00000380: 3d17 d3bc 7fbd 99bd ff77 643d 6877 ef3d
00000390: d130 06be c27f 023d 548e c13d 28fa 80bc
000003a0: 22be 7dbc e0fe 8f3d 564b e4b9 5e2c 85bd
000003b0: 2304 52bd e1fd 183c d3bd bb3c 66dd f2bc
000003c0: 6799 f73b 92e6 9d3b 1b0b 09be e9f3 54bc
000003d0: 6837 a03d b381 28bd 270b 2bbc 6c54 b93d
000003e0: 1b6e bebd 5eb5 9cbd 6956 85bd 0bc2 b93d
000003f0: 8fad 09be 0c96 f6bb 8c55 f7bd 65c5 04bd
-0.014397012 -0.014768937 0.14812517 -0.062288046 -0.075279325 -0.19685489 -0.086537816 -0.37322694
-0.12664737 -0.05058976 -0.0074636545 -0.13940524 -0.14544725 0.055197537 -0.089982 0.035117242
-0.17317994 0.09727923 0.18156761 0.19970745 0.008488869 -0.016183296 0.13150959 0.15722182
-0.17283534 -0.18353146 0.27261272 0.064149834 0.20381373 -0.070625834 0.068338916 -0.21171413
0.054705665 0.13323128 0.033489503 0.16738534 -0.07925474 0.014243573 -0.041926667 -0.07542747
-0.25311226 0.07192997 0.2850773 0.0062124277 0.11126941 -0.23550044 -0.26417255 -0.12996832
-0.14696659 -0.3514826 -0.1984786 -0.06227823 -0.086220644 -0.020938247 -0.05490299 0.09953028
5.377938e-05 -0.2613946 -0.2331647 0.23263259 0.08572038 -0.06916415 -0.21465261 0.5368961
0.018681183 0.13580802 -0.362354 0.12728663 -0.010629074 0.18146667 0.10384351 0.09032949
0.16764311 -0.08891817 -0.026356267 0.13575111 -0.46657625 0.051122725 -0.22043343 0.07728417
0.072607316 -0.13315238 -0.12533045 0.023804113 0.2573526 -0.64617574 0.02988792 -0.2352127
0.22983846 0.14128678 -0.18291806 0.05527408 0.009366566 -0.057577875 -0.39877743 -0.22229962
-0.14802851 0.013512281 -0.008562562 -0.26181084 -0.009497332 0.035549995 -0.3993517 -0.26968575
0.09134483 0.011535129 -0.17213807 -0.06304642 -0.091238804 -0.05464826 -0.05619775 0.04109505
0.13244677 -0.16775876 -0.10037807 -0.02359074 -0.014095901 0.3200907 0.16448757 -0.103034705
0.07491365 -0.40621603 0.078568615 0.12808624 -0.33427432 -0.040634066 0.017735539 -0.4161841
-0.100016445 -0.115143165 0.007594081 0.04939756 0.015851133 0.029169431 -0.27928942 -0.030276215
0.08243958 -0.08182767 0.13880423 0.05440869 0.046294354 0.1581268 -0.0013017202 0.017915057
-0.047313478 -0.22879328 0.09598395 -0.16579066 -0.22255802 0.09316885 0.09691518 -0.030028554
0.014106833 0.14015152 0.1513003 -0.154081 0.07441886 0.11325006 0.24543375 -0.0012545951
-0.17694442 0.062419485 -0.1292113 0.04255894 0.18980676 0.1872737 0.02199479 -0.05791452
0.2711877 -0.28063163 -0.48339003 -0.016249226 0.06957371 -0.014316794 0.087032825 -0.2560692
0.010603722 -0.15561384 0.060797267 -0.13927087 -0.28367642 -0.10172849 -0.05546287 -0.13248132
-0.0194755 0.020835372 0.09451474 0.05444611 -0.12694554 0.045617096 0.022900157 0.13296792
-0.059793603 -0.1414336 0.079435624 -0.12141295 -0.07069937 -0.04950586 -0.05142704 -0.07066812
-0.15799934 0.015521688 -0.04123663 0.071716204 -0.03571111 0.06557593 0.004283302 -0.07597973
-0.048176527 -0.0065520946 -0.029070588 -0.03660503 0.007913641 0.0856162 -0.0184218 0.019470392
0.058685966 0.003989093 0.0625267 0.051535774 0.12666923 -0.18901604 0.02211383 -0.033370424
-0.025767917 -0.07506847 0.0557785 0.11692697 -0.1310456 0.03186012 0.09450975 -0.015744284
-0.015487226 0.070310354 -0.00043543678 -0.06502603 -0.051273476 0.009337873 0.022917664 -0.029646587
0.007556129 0.004818746 -0.13383143 -0.012997606 0.07823068 -0.041139316 -0.010439671 0.09049305
-0.09298345 -0.076517805 -0.06510622 0.09070214 -0.13445114 -0.007525211 -0.12076864 -0.032414813

fc2.bias f4 [64]
00000000: 213a fa3d c95c 393d 6f66 a13e 0d12 8d3c
00000010: 4040 723e fbee 14bd e758 1b3c 5a17 9fbc
00000020: b37a 893e a6e1 cd3e 42e3 bfbd e322 943e
00000030: 1a4b a83e 7b20 9abd 4859 77bd c632 ea3d
00000040: a69d 28bc af09 d0bd 2d75 39bb a9d9 b43e
00000050: cf29 9e3e 850c e43e 6847 0dbe 2c4e e0bd
00000060: 2e8d 1cbd 0dca efbd b1ae ba3c 1f40 bebd
00000070: 3c36 aabd 965b 963e 742f 9c3d 734f fe3d
00000080: e54d d43d 531f f53d 62b8 893e f5b9 92bd
00000090: be08 11be c788 11be 6e2d c53e a85c 293d
000000a0: 10cf 37bd c4f3 ec3e c8fd a63e 4ab0 04be
000000b0: 8c07 173e cf79 62bd b994 6c3e f420 323a
000000c0: 908a 6b3e e6ae c4bd 0984 0bbe d80d d73e
000000d0: 66b0 84bc f015 c0bc 20b6 993e cdbe 0bbe
000000e0: 6af0 5abe c22a d9bd 937f 2f3e bcbc afbd
000000f0: 301c c13d 6359 3f3e 9034 143e 5a46 29bd
0.122181185 0.045254502 0.31523463 0.017220521 0.23657322 -0.036360722 0.009481645 -0.019420315
0.26851425 0.4021122 -0.09369518 0.28932866 0.32869798 -0.075257264 -0.06038788 0.114354655
-0.010291493 -0.10158097 -0.0028298602 0.35322312 0.30891272 0.44540802 -0.1379677 -0.1095241
-0.038220577 -0.1170846 0.022788377 -0.09289574 -0.08311126 0.2936675 0.076262385 0.124174975
0.1036642 0.11968865 0.26898485 -0.07164375 -0.14163491 -0.14212333 0.38511223 0.04134813
-0.044875205 0.46279728 0.32615495 -0.12957874 0.14748973 -0.055291947 0.23103608 0.00067950715
0.23002076 -0.09603672 -0.13624586 0.4200275 -0.016197395 -0.02344796 0.30021763 -0.13647003
-0.21380773 -0.106038585 0.1713851 -0.0858092 0.094292045 0.18686442 0.14473176 -0.041326858

fc3.weight f4 [4, 64]
00000000: 2c48 9b3c c9b0 523e 8f71 2f3e 297c e8bc
00000010: 99f8 363e ab0d 4f3e 09ed 6b3e 0317 64be
00000020: b945 263e c0ba e73d 2c68 6dbe 7df9 153e
00000030: 2ffd ce3d f6d0 77bc 3050 1cbd 4d65 fe3d
00000040: 42e9 d2bc f2f9 8b3c efea 7c3e 893f 403e
00000050: fa3f 063e adc6 e53d 2f58 693e a201 96bc
00000060: 4f4b 6f3e 6aab b8bd 5fc2 6cbe f5ae 09be
00000070: f90b 183c 68bf d13d 84b5 903e d33c 053e
00000080: 4c3c ed3d 3dd2 bb3e 6c4b 0a3e 4e93 353e
00000090: 753a b53e 7aaa dabd 65e5 243e b5fe 5a3e
000000a0: 8c28 5e3d 3fe9 173e 8b6b ab3d 3e1f dd3c
000000b0: 0a6d 1d3e ef2a e13d b607 3d3e 7280 523e
000000c0: 89a1 453e e42c bd3d c74a d2bd 4548 1f3e
000000d0: 87cc 063f 204e 363d 3d1f 023e 729f 59be
000000e0: 8b93 a7be 8700 d93d 04bd 8a3e cf89 823e
000000f0: 2e1c 2d3c 6037 b33d 734e 303e 4044 3a3f
00000100: 910c 5d3d a023 103e b230 353e e1e3 f5bb
00000110: 59b0 213e ba02 4b3e b2fc 6a3e e696 09be
00000120: 3ec0 313d 67ff 073e dae4 95bd e38d 203e
00000130: 19f4 653d 108b 4dbb 60de a5bc 3f07 833d
00000140: 5a19 ebbd 6743 263c d981 723e 581f e13d
00000150: f497 3d3e e4dd 313e 0d23 f7bd 69ad cc3d
00000160: 6389 9c3e cd43 30bd 8981 31be 175b 313e
00000170: 7725 a3bd 62dc 0b3e e755 343e 9fd3 033e
00000180: 588a 913d 65bc ac3e 8083 423e 68ed 7bbe
00000190: 1c2e 363e 12f7 043e 8396 5f3e 6e6f 653e
000001a0: 9da0 263e 7b95 353e 69d9 663d dfa4 4fbe
000001b0: 00a2 963d 406b 31be b538 293e 4758 a03e
000001c0: bece 623e 2421 913e de0e 1cbe b808 d23d
000001d0: 2079 213f fa25 443e 90c5 093e dd59 1dbe
000001e0: 94e6 10bd 3447 96be 9149 113e 44e2 64bd
000001f0: eb61 d93d 5866 f63c 20fe 193e b4ce fa3e
00000200: fb03 af3d 885f c6bd f05c 173e c1fa 8c3c
00000210: ae86 373e 7677 923e 3502 5b3e 8ba6 1d3d
00000220: 61fe 9f3d 0ec8 013e f721 85be 966b 833e
00000230: f5e7 6e3e f872 a9bd 665c 98bd 5356 873d
00000240: 9cb1 003d 7e78 12bd b9ae 0e3e 1a70 b03d
00000250: 83f1 9b3d eb8f 253e e862 23bc 043d e83c
00000260: 93cf e33e f548 90bd 8548 49be 0478 b03e
00000270: 3ca7 f63d 95e0 5a3e 7204 473e d3a4 b93c
00000280: 5dbd 083d 3a96 ff3d 0019 473e b33e 80bc
00000290: 0839 293f 59b1 0d3e f2dd 163e 7ea8 e63d
000002a0: f8db 2e3e 82aa 3e3e cf05 1c3e 1d80 21be
000002b0: 7455 f13d aa0e 463e 3e29 223e 09eb bc3d
000002c0: 072c 8b3e 5e24 f73c 7658 07be fdd7 573e
000002d0: f876 263e 7960 433e 85e1 c53d 8a31 1fbe
000002e0: b6d4 13bf ae99 1bbd 7e0f f03d 66f4 303e
000002f0: 58d2 4e3e 7d80 383d f97d 1abe b067 103f
00000300: 1015 0c3e bcd9 8b3d 647c a83d f4dd 5abd
00000310: 7b59 3e3e 6907 8f3e bcb4 e33d 941f d7bd
00000320: a196 003e e1fa 533e 7dd3 883d b3f4 d03b
00000330: d4da 3c3e f883 b53c 00be 723d c271 4a3b
00000340: ce36 e83d bdae 463c e0c7 b83e 49d1 383e
00000350: 7d2f b83d e6c6 2b3e 5994 a7bd 925d 4f3d
00000360: 6262 9d3d 3754 9cbd 6458 e5bd 07a3 e0bd
00000370: 53c9 933d a7e2 953c c3a0 12be 46e8 c33d
00000380: 0a6b 533d bf4f 4a3e 78e5 313d e89d 90bc
00000390: f8ed 65be e30a 6d3c 23f4 493e 5f0a 803c
000003a0: 2fbf a4bd 09df 513e c5d7 603e 8a21 c9be
000003b0: f891 543e 0cd6 0e3e be6a 123e 0e3c a93e
000003c0: 81f9 413e bb7a de3c 2c6d 283e 01fb 2f3e
000003d0: 8a25 5b3f ac7b 2e3e 188e f83d 137e 683e
000003e0: 9059 2dbe 4596 a2be 3ce0 183e 6149 7e3c
000003f0: 22b9 283e c34e 183c 9505 7a3e 0e16 833e
0.018955313 0.2057525 0.17133163 -0.028379517 0.1786827 0.20220058 0.2303964 -0.22274403
0.16237535 0.113149166 -0.2318427 0.14645953 0.10106885 -0.015125504 -0.03816241 0.12421665
-0.025745992 0.017086957 0.24698995 0.18774237 0.13110343 0.11219535 0.22787546 -0.018311325
0.23368572 -0.0901707 -0.23121022 -0.13445647 0.009280198 0.10241586 0.28263485 0.13011484
0.11583766 0.36683837 0.13505334 0.17731974 0.35396162 -0.10677047 0.16103132 0.21386226
0.054237887 0.1483507 0.083701216 0.026992436 0.15373626 0.10994517 0.18459973 0.2055681
0.19299902 0.09237078 -0.10268169 0.15554912 0.52655834 0.0445081 0.12707229 -0.2125223
-0.32729754 0.10595804 0.27097332 0.25495765 0.010565801 0.08750796 0.17217426 0.7276039
0.053967062 0.1407609 0.17694357 -0.007503972 0.15789928 0.19825259 0.22947958 -0.1343647
0.043396227 0.13281022 -0.073190406 0.15679125 0.056140993 -0.0031363405 -0.020247638 0.063978665
-0.11479445 0.010147906 0.23682345 0.109923065 0.18514997 0.17369801 -0.12067232 0.09994013
0.30573568 -0.04303341 -0.1733457 0.17319904 -0.0796613 0.13658288 0.17610894 0.12873696
0.07106465 0.33737484 0.18995476 -0.24602282 0.17791027 0.12984875 0.2183476 0.22405788
0.16272207 0.17732804 0.056359682 -0.20277737 0.07355118 -0.17326069 0.16525538 0.3131735
0.22149178 0.28345597 -0.15240046 0.10255569 0.6307545 0.19155112 0.1345427 -0.15366311
-0.035376146 -0.293512 0.1418822 -0.055879846 0.106143795 0.030078098 0.15038347 0.48985827
0.08545681 -0.0968619 0.14781547 0.017209413 0.1792247 0.28606766 0.2138756 0.038488906
0.07812191 0.12673971 -0.26002476 0.2566802 0.23330672 -0.08273882 -0.074394986 0.06608262
0.03141938 -0.03575944 0.13933839 0.08615132 0.07614424 0.16168182 -0.009972312 0.028349407
0.44494304 -0.070451654 -0.1965657 0.34466565 0.12043616 0.21374734 0.1943529 0.022661602
0.033383716 0.12479825 0.1944313 -0.015654897 0.6610265 0.13837184 0.14733103 0.11262606
0.17076099 0.18619731 0.15236591 -0.15771528 0.11783877 0.19341531 0.15836045 0.09224517
0.27182028 0.030168708 -0.13217339 0.21078487 0.1625632 0.1907977 0.09662155 -0.15546241
-0.57746446 -0.037988357 0.11721705 0.1728073 0.20197427 0.04504441 -0.15087117 0.56408215
0.1367991 0.06828639 0.08226851 -0.053434327 0.18588822 0.2793534 0.11118457 -0.1050407
0.1255746 0.20701171 0.06680963 0.0063768267 0.18442851 0.022157654 0.05926323 0.003089056
0.11338578 0.012126622 0.36089993 0.18048586 0.08993433 0.16775092 -0.08182592 0.050626345
0.07684781 -0.0763325 -0.111985 -0.10968595 0.07216134 0.018296553 -0.14319138 0.09565787
0.051615752 0.19756983 0.04343173 -0.01765342 -0.22454059 0.014467928 0.19722037 0.015629945
-0.08044278 0.20495237 0.2195731 -0.392834 0.20758808 0.1394884 0.14298531 0.3305363
0.18942834 0.027158132 0.16447896 0.17185594 0.85604155 0.17039365 0.12136477 0.22704343
-0.16928697 -0.31755272 0.14929289 0.015520425 0.16476873 0.009296122 0.24416192 0.25602764

fc3.bias f4 [4]
00000000: 4a96 9f3e c652 8d3e d2d4 483e 127e 5a3e
0.3116935 0.27602214 0.19612435 0.21337155
