checkpoint_dqn.pth (torch_old, 28391 bytes, 6 tensors)

fc1.weight f4 [64, 37]
0	0xbe875d81	-0.26438525
1	0x3e5ac16a	0.21362844
2	0xbd462e40	-0.04838395
3	0xbee15050	-0.44006586
4	0x3d982dcd	0.07430611
5	0xbe42363c	-0.18966001
6	0x3e1bc580	0.15212059
7	0x3e884f11	0.26622823
8	0x3db4b7ed	0.088241436
9	0x3e157f0d	0.14599247
10	0x3d95eba4	0.073203355
11	0xbe1462c0	-0.14490795
12	0xbd1a79a8	-0.037713677
13	0xbe509849	-0.20370592
14	0xbe4f3ab3	-0.20237236
15	0x3dacf656	0.08445422
16	0x3d8a4dd6	0.06753127
17	0x3d81cb9d	0.06337664
18	0xbd844dd9	-0.06460161
19	0x3e3ba1c3	0.18323426
20	0x3e168d6c	0.14702386
21	0xbdb59c2f	-0.0886768
22	0xbe0e5068	-0.1389786
23	0x3e2afbf5	0.16697676
24	0xbe0b0041	-0.13574316
25	0x3e3843ad	0.17994566
26	0xbd215493	-0.039387297
27	0xbda93fb3	-0.08264103
28	0xbeebb94d	-0.4603981
29	0xbf26d8e6	-0.6517471
30	0xbe1ccc40	-0.1531229
31	0x3dcc4a87	0.099751525
32	0x3cd2d4ec	0.025736295
33	0xbdf91932	-0.12163009
34	0xbd6e6a90	-0.058207095
35	0x3de0dd08	0.10979658
36	0xbd0dad79	-0.034589265
37	0x3ebcf142	0.36902815
38	0x3d73229c	0.059359178
39	0xbd6e29bf	-0.05814528
40	0xbd1f92da	-0.038958408
41	0xbe6966b9	-0.22793092
42	0xbc59d669	-0.013295748
43	0xbe17b276	-0.14814171
44	0x3e0576f5	0.1303366
45	0xbe9f2dd7	-0.3108966
46	0xbe0a5acd	-0.135112
47	0x3e405b6d	0.18784876
48	0xbdf8981a	-0.12138386
49	0xbc9a036b	-0.018800458
50	0x3de4f7b9	0.11180062
51	0xbdfa05f9	-0.122081704
52	0x3dcedea7	0.10101061
53	0x3cb15433	0.021646595
54	0x3d9cb6c6	0.07652049
55	0x3da0258a	0.0781966
56	0xbe589bc1	-0.21153165
57	0xbd8ffd2f	-0.07030713
58	0xbe69400d	-0.2277834
59	0xbde48a37	-0.11159175
60	0x3e1465c7	0.1449195
61	0x3cb83b65	0.022489259
62	0xbe7148e7	-0.23562966
63	0x3c08d232	0.008350896
64	0x3e76d96e	0.2410638
65	0x3ddfe336	0.10932009
66	0xbdff9049	-0.12478692
67	0x3dd36aa6	0.10323076
68	0x3e27db3d	0.16392227
69	0x3e033223	0.12812094
70	0xbe16b682	-0.14718059
71	0xbd538b66	-0.051646613
72	0x3c84b362	0.016198818
73	0xbcd92801	-0.026508333
74	0xbbbc9f9e	-0.0057563325
75	0x3d33c17c	0.043885693
76	0x3d9a04ee	0.075204715
77	0x3e990360	0.29885387
78	0x3ba0dccb	0.004909133
79	0xbc1433be	-0.009045539
80	0xba221b88	-0.0006183912
81	0x3b9a0f1d	0.0047015087
82	0x3e2f0f9c	0.17095798
83	0xbe2bbb71	-0.16770722
84	0x3e847ae0	0.25874996
85	0xbeb16108	-0.3464434
86	0xbd4f154c	-0.05055742
87	0xbce415da	-0.02784245
88	0xbf8fb24f	-1.122629
89	0xbab93c3e	-0.0014132333
90	0x3e03c182	0.12866786
91	0x3d86ea1b	0.06587621
92	0xbe11fffa	-0.14257804
93	0x3e3d04b9	0.18458833
94	0xbe016f81	-0.12640192
95	0xbbe13ed9	-0.006873947
96	0x3e8191ad	0.25306454
97	0xbe903318	-0.2816398
98	0x3e21d31a	0.15803185
99	0xbe6bd3df	-0.23030041
100	0x3e7d2e90	0.24724793
101	0x3e7de248	0.2479335
102	0xbd17d19b	-0.03706513
103	0xbeca8c74	-0.39560282
104	0xbdb2eb5f	-0.087363
105	0xbd76da3a	-0.06026671
106	0xbd99eb1f	-0.07515549
107	0x3c819ab2	0.015820835
108	0xbd3e57f8	-0.046470612
109	0xbc471e54	-0.012153227
110	0xbc171975	-0.009222378
111	0xbe366881	-0.17813303
112	0x3e0185ff	0.12648772
113	0x3e99c725	0.30034748
114	0x3e14c11b	0.14526789
115	0x3d444af8	0.04792306
116	0xbdc7ac02	-0.09749605
117	0xbcaa6b43	-0.0208031
118	0xbd964a63	-0.07338407
119	0x3e8c0d73	0.2735401
120	0x3eb0e602	0.34550482
121	0x3e8c3bc1	0.2738934
122	0xbf0c6003	-0.54834
123	0xbe11297b	-0.1417598
124	0xbe7c7d70	-0.24657226
125	0xbfa4d51f	-1.2877539
126	0xbc7690f4	-0.015049208
127	0xbd798cb5	-0.060925204
128	0x3d39b685	0.04534008
129	0x3c7bc8c8	0.015367694
130	0x3d1da3eb	0.038486402
131	0x3de8e124	0.11371067
132	0x3c89bfd5	0.016815105
133	0xbe1854c8	-0.14876091
134	0x3d3afd42	0.04565168
135	0xbe8363ef	-0.2566218
136	0xbd4f701e	-0.050644033
137	0x3c93ae29	0.018027382
138	0x3dae1566	0.08500175
139	0x3e61e587	0.22060214
140	0x3e0ed7bc	0.13949484
141	0x3d949355	0.07254664
142	0x3e137e52	0.14403656
143	0x3e181316	0.1485103
144	0x3cb3ddf9	0.02195643
145	0xbe169314	-0.14704543
146	0x3d7fb962	0.062432654
147	0xbc504249	-0.012711116
148	0xbe68a7cf	-0.22720264
149	0xbda5949d	-0.08084986
150	0xbea8f418	-0.3299873
151	0xbd8a9bf9	-0.06768031
152	0xbd66595c	-0.056237563
153	0xbddb524f	-0.107090585
154	0x3d956ad6	0.07295768
155	0x3b8bdf69	0.004268576
156	0xbd82fb1b	-0.06395551
157	0xbea81b8f	-0.32833526
158	0x3d933912	0.0718862
159	0xbe013298	-0.12616956
160	0xbe0a3faf	-0.13500856
161	0xbecabe7d	-0.39598456
162	0x3ded2228	0.115787804
163	0xbc9a40fe	-0.018829819
164	0x3bd91ff1	0.006626122
165	0x3cb3abaf	0.021932451
166	0xbf1620d1	-0.58643824
167	0x3d8140fc	0.06311223
168	0xbd47da5e	-0.048792236
169	0xbe8fc6d6	-0.28081387
170	0x3dff261e	0.12458442
171	0xbe403cc5	-0.18773182
172	0x3e2f6c33	0.17131118
173	0xbd480311	-0.04883105
174	0xbeda6ac8	-0.42659593
175	0x3e74ce56	0.23906836
176	0xbd8ddd46	-0.0692697
177	0xbcc9c482	-0.024629835
178	0x3e93c81c	0.2886361
179	0xbec26830	-0.37970114
180	0xbe9e6864	-0.3093902
181	0xbd777f05	-0.06042387
182	0xbd6b1668	-0.057394415
183	0xbd48e975	-0.049050767
184	0x3c5d59a1	0.013510139
185	0x3d6859f1	0.0567264
186	0x3b1bc985	0.0023771238
187	0xbc37edb0	-0.011226103
188	0x3a7ade35	0.00095698546
189	0x3d3300ca	0.043701924
190	0x3e8ba52f	0.27274463
191	0xbd374752	-0.04474575
192	0x3e04f6e4	0.12984806
193	0xbe5aba9d	-0.2136025
194	0xbfe3363d	-1.7750927
195	0x3b8aab95	0.00423188
196	0xbae30dfb	-0.0017322892
197	0x3cafd0c1	0.021461846
198	0xbdbee443	-0.09320881
199	0xbb9a4a7e	-0.004708587
200	0x3c09d5ac	0.00841276
201	0x3e0908cc	0.13382262
202	0xbd519617	-0.051168527
203	0xbd76e0f6	-0.060273133
204	0x3dd425c7	0.10358768
205	0x3d9f0fcf	0.07766687
206	0x3db93b8d	0.090445615
207	0x3e145802	0.14486697
208	0x3dd09183	0.10184004
209	0x3e75925b	0.23981611
210	0xbc3a17a8	-0.011358179
211	0x3bf22d5e	0.007390662
212	0x3d7a8a23	0.061166894
213	0x3df75fa6	0.1207879
214	0x3de6b8f3	0.11265745
215	0x3dba5535	0.09098283
216	0xbe25b526	-0.16182384
217	0xbdb7a7d6	-0.08967559
218	0x3e666857	0.2250074
219	0x3e00cf63	0.12579112
220	0xbbcf760f	-0.0063312124
221	0xbae3fb8f	-0.0017393696
222	0xbd302904	-0.043007866
223	0xbe5491d8	-0.2075876
224	0xbe04671e	-0.12929961
225	0xbed651d3	-0.41859302
226	0x3bd1909e	0.0063954135
227	0x3d0ea507	0.03482535
228	0xbea79297	-0.32729027
229	0xbf114807	-0.5675053
230	0x3e0303b5	0.12794383
231	0x3e0ab153	0.13544206
232	0x3d7ecdad	0.062207866
233	0xbe78d819	-0.24301185
234	0x3e2bb88b	0.16769616
235	0xbeaf7447	-0.342684
236	0xbdeb063e	-0.114758
237	0xbe368a68	-0.17826235
238	0xbebcd5ea	-0.36881953
239	0x3bc3a182	0.005970181
240	0x3b9de85c	0.004818959
241	0x3e0f00f4	0.13965207
242	0xbf02f1c1	-0.5115014
243	0xbdf10161	-0.11767841
244	0x3e18cc92	0.14921787
245	0xbe43ce08	-0.19121563
246	0xbe2d6218	-0.16931951
247	0xbe3bc3a2	-0.18336347
248	0xbf127a19	-0.57217556
249	0xbe42aa00	-0.19010162
250	0xbcac2f40	-0.021018624
251	0x3d697836	0.056999408
252	0x3d87c681	0.066296585
253	0xbf0aaf2b	-0.54173535
254	0xbe8cfec0	-0.2753811
255	0x3e37c569	0.179464

fc1.bias f4 [64]
0	0x3dafcfd3	0.08584561
1	0x3bc7e01c	0.006099714
2	0xbdcd13ce	-0.10013543
3	0xbd9c44d8	-0.076303184
4	0x3e0b99c7	0.1363288
5	0xbcbacadb	-0.022801807
6	0xbddd7c52	-0.10814728
7	0x3d550c26	0.05201354
8	0x3cd4c8b3	0.025974607
9	0xbe863401	-0.2621155
10	0x3ee6cf2c	0.45079935
11	0x3e382168	0.17981493
12	0x3dec01bb	0.115237676
13	0x3e83669c	0.25664222
14	0xbd320098	-0.043457597
15	0xbdb413b6	-0.08792822
16	0x3db63905	0.08897594
17	0x3d4888ba	0.048958518
18	0xbd97b144	-0.074068576
19	0xbe65004d	-0.22363396
20	0xbc160db7	-0.009158543
21	0x3e1a48cc	0.15066832
22	0x3e616687	0.22011767
23	0xbe142623	-0.14467673
24	0xbe712ebe	-0.23552987
25	0x3ddc349d	0.10752223
26	0xbdf757ea	-0.12077315
27	0xbdefb25c	-0.11703941
28	0x3e338c69	0.17534031
29	0x3d9f18fa	0.07768436
30	0xbda614a3	-0.08109405
31	0xbe5726e6	-0.21010932
32	0x3e07595d	0.13217683
33	0x3b937689	0.0045002145
34	0xbe783bfc	-0.24241632
35	0x3c47bf6d	0.012191636
36	0x3e23a4f9	0.15980901
37	0x3ad86648	0.0016509974
38	0xbdbbb882	-0.091660514
39	0xbdc2bb87	-0.09508424
40	0xbe2c7397	-0.16840969
41	0xbe0a7dec	-0.13524598
42	0xbd985c94	-0.07439533
43	0x3ebd1ef7	0.36937687
44	0xbd1c9ee8	-0.038237482
45	0xbce1a168	-0.027542785
46	0xbc170e1b	-0.009219672
47	0xbe5ccf58	-0.2156347
48	0xbe63897a	-0.22220412
49	0x3b8790bd	0.004137127
50	0xbe390fcf	-0.18072437
51	0x3d01a0d8	0.031647533
52	0xbe076176	-0.13220772
53	0xbd30f723	-0.043204438
54	0xbdceac30	-0.10091436
55	0x3d2e857a	0.042607762
56	0x3dfb41be	0.12268399
57	0xbced1d54	-0.028944649
58	0xbdf4c39a	-0.119513705
59	0xbe0341c5	-0.12818058
60	0xbbb910e8	-0.0056477673
61	0x3dee108c	0.1162425
62	0x3ded1d3e	0.11577843
63	0xbb605743	-0.00342317

fc2.weight f4 [64, 64]
0	0x3bb04692	0.0053795064
1	0xbce68221	-0.028138222
2	0x3e357f8f	0.17724441
3	0xbe2e5d14	-0.17027694
4	0x3e00cd5c	0.12578338
5	0xbddde4e0	-0.1083467
6	0x3e2dfb31	0.16990353
7	0x3e51f4ad	0.20503493
8	0x3d12975e	0.035788886
9	0xbdf54790	-0.1197654
10	0x3c86970a	0.016429443
11	0xbedc93b9	-0.43081453
12	0xbdaddfda	-0.08489962
13	0xbc8fc715	-0.017550984
14	0x3ca15cd6	0.019697588
15	0x3e08c05c	0.1335463
16	0xbebabfe2	-0.3647452
17	0x3e894abb	0.26814827
18	0xbd8d2bee	-0.068931445
19	0x3dd34ef7	0.10317796
20	0xbe3b4b7d	-0.18290515
21	0x3e4b5e96	0.198603
22	0x3db0fc4a	0.0864187
23	0x3f0253b1	0.5090895
24	0xbdf7f6fc	-0.121076554
25	0xbd51f74f	-0.051261242
26	0x3c7c0277	0.015381447
27	0xbdcdcb1c	-0.10048506
28	0xbe088041	-0.13330175
29	0xbeaf6e8c	-0.34264028
30	0xbd7d25e2	-0.061803706
31	0xbd08e922	-0.033425458
32	0x3d8a95e2	0.06766869
33	0xbe34d55e	-0.17659518
34	0x3cdd5fef	0.027023284
35	0x3da02ba2	0.07820822
36	0xbe017f35	-0.12646182
37	0xbf86aeb2	-1.0522063
38	0xbebf91f4	-0.3741604
39	0xbc0ce862	-0.008600326
40	0xbdb4568f	-0.08805572
41	0xbba72b89	-0.0051016253
42	0xbdae2e6d	-0.08504949
43	0xbd41a9bd	-0.047281016
44	0xbe0b3c92	-0.13597324
45	0x3e0ad703	0.13558583
46	0x3e15cb28	0.14628279
47	0x3e66cec1	0.22539808
48	0x3b9125b9	0.0044295457
49	0x3c9e62f9	0.019334303
50	0xbe027c74	-0.12742788
51	0xbd4a7ff0	-0.049438417
52	0xbe9eef19	-0.31041792
53	0x3dca7b46	0.09886794
54	0x3d8f0057	0.06982487
55	0xbddd8f9d	-0.10818408
56	0x3e181266	0.14850768
57	0xbea966b7	-0.33086178
58	0xbe54b435	-0.20771869
59	0x3d981d42	0.074274555
60	0x3ea69c89	0.32541302
61	0x3ded3f23	0.11584308
62	0xbee4bf2e	-0.4467711
63	0x3e12d006	0.14337167
64	0x3d926cef	0.07149684
65	0x3ded6f6c	0.11593518
66	0x3dc52fee	0.096282825
67	0x3e349c98	0.17637861
68	0x3d88da53	0.06682267
69	0x3d6d4e04	0.05793573
70	0xbc7dc7c8	-0.015489526
71	0x3e17abe4	0.14811665
72	0xbcb4808f	-0.022033958
73	0x3e5dd0dc	0.21661705
74	0x3da493d8	0.080360115
75	0x3ea838a9	0.32855728
76	0xbb486d46	-0.003058271
77	0x3e0ee59e	0.1395478
78	0xbcb615f0	-0.022227257
79	0xbdb6839a	-0.0891182
80	0x3dca9285	0.09891228
81	0xbe20c48b	-0.15699975
82	0xbdfaf1b7	-0.12253135
83	0xbdb743e6	-0.089484975
84	0x3d553b4e	0.05205851
85	0xbe91245a	-0.28348047
86	0x3d24ffef	0.04028314
87	0x3dad59b3	0.084643744
88	0xbd804d33	-0.062647246
89	0xbb6de9a9	-0.0036302602
90	0xbb291467	-0.0025799514
91	0xbdd9a20d	-0.10626612
92	0x3e25d36a	0.1619393
93	0xbdc8387a	-0.09776397
94	0xbba80933	-0.0051280498
95	0xbe28b06b	-0.16473548
96	0xbda41511	-0.080118306
97	0xbd51055c	-0.0510305
98	0xbe0a30d0	-0.13495183
99	0x3d117e23	0.035520684
100	0xbaadf314	-0.0013271295
101	0x3ed34761	0.41265395
102	0x3e750be9	0.23930325
103	0xbe4a36af	-0.19747423
104	0xbdabbff7	-0.08386224
105	0xbcc5b938	-0.02413617
106	0xbe8bd32f	-0.27309558
107	0xbdb4130e	-0.08792697
108	0xbd184fdf	-0.037185546
109	0xbe631208	-0.22174847
110	0x3c2d3f61	0.010574193
111	0xbe71b5ff	-0.23604582
112	0xbdc9b87f	-0.09849643
113	0xbeaccc43	-0.3374959
114	0x3ba891b9	0.0051443246
115	0x3e03c662	0.12868646
116	0xbcf931aa	-0.03041919
117	0xbe54b476	-0.20771965
118	0x3c137bf8	0.009001724
119	0x3dea6b90	0.11446297
120	0xbe3e0e66	-0.1856018
121	0x3d70287a	0.05863235
122	0x3dbd1113	0.09231772
123	0xbd1ab52c	-0.037770435
124	0xbe802e29	-0.25035217
125	0xbdd3e78c	-0.103468984
126	0xbcdbeb59	-0.026845621
127	0xbd09e0f0	-0.033661783
128	0xbd846b76	-0.06465809
129	0xbdd227c7	-0.10261493
130	0xbc959842	-0.018261079
131	0x3cd8849b	0.026430419
132	0x3cc22209	0.02369787
133	0x3b270c9e	0.0025489698
134	0xbd11749f	-0.03551161
135	0xbccca6fe	-0.024981972
136	0x3da36316	0.079778835
137	0xbe5354b9	-0.20637788
138	0x3e7c1ada	0.24619618
139	0x3e678d8e	0.22612593
140	0xbc98a43b	-0.018632999
141	0x3e31eeef	0.17376302
142	0x3da91cc4	0.0825744
143	0xbd823370	-0.06357467
144	0xbd96461a	-0.073375896
145	0x3d2e575c	0.04256378
146	0x3da338c4	0.079698116
147	0x3abd906f	0.00144626
148	0xbda70c21	-0.0815661
149	0x3db905e8	0.0903433
150	0x3e2ffae9	0.17185558
151	0x3dbb676b	0.09150585
152	0x3c2115f6	0.009831896
153	0xbd248c3f	-0.04017281
154	0x3e8851fc	0.2662505
155	0x3e118a73	0.1421297
156	0xbca40c77	-0.020025475
157	0x3e3b835f	0.18311833
158	0x3e16dce2	0.14732698
159	0xbd73930d	-0.05946641
160	0xbd0c1297	-0.034197416
161	0xbac9798b	-0.0015371306
162	0xbde0e5ae	-0.10981308
163	0x3d2c7321	0.042101983
164	0x3e3aeadb	0.18253653
165	0x3e8a433f	0.2700443
166	0x3e237551	0.15962721
167	0x3d2455e9	0.040120993
168	0x3d917e9c	0.07104227
169	0xbe44d6bd	-0.19222541
170	0x3e45c5de	0.19313762
171	0x3ccd22e0	0.025041044
172	0xbcec124e	-0.028817322
173	0x3da47d9f	0.08031773
174	0xbdb20320	-0.08692002
175	0xbd9ed1d6	-0.07754867
176	0xbdf135ac	-0.11777815
177	0xbe3a4e8e	-0.18194029
178	0x3d7ad81e	0.06124126
179	0xbd5fd06b	-0.054642122
180	0xbe97d867	-0.2965729
181	0x3d7437b5	0.05962344
182	0xbdd05477	-0.101723604
183	0x3cfa5d1b	0.030561974
184	0x3ce76fa1	0.028251471
185	0xbdc59800	-0.09648132
186	0x3dea7d34	0.11449662
187	0x3e055ae8	0.13022959
188	0xbdd38c6f	-0.1032952
189	0x3d5fc590	0.05463177
190	0xbcd49fa4	-0.025955029
191	0x3e15eb83	0.14640622
192	0x3e184c19	0.14872779
193	0x3d9e390c	0.077257246
194	0x3db8c77d	0.09022424
195	0x3e917586	0.28409976
196	0xbe819a35	-0.25312963
197	0xbcda11b5	-0.026619771
198	0xbdea7732	-0.11448516
199	0x3dea6a19	0.11446018
200	0x3d8c71ae	0.0685762
201	0x3e1ca3cf	0.15296863
202	0xbcb4223f	-0.021988986
203	0xbe5f21f4	-0.21790296
204	0xbdaf5999	-0.08562011
205	0x3e1a794b	0.15085332
206	0xbdb408d0	-0.08790743
207	0x3d714c46	0.05891063
208	0xbe992605	-0.2991182
209	0x3e2038a0	0.156466
210	0x3db53dea	0.088497
211	0x3d9b09bb	0.07570215
212	0xbe13d418	-0.14436376
213	0x3ba967f2	0.005169862
214	0xbcfcd5bb	-0.030863633
215	0xbe057a85	-0.13035019
216	0x3e292eec	0.16521806
217	0x3e4539b6	0.19260296
218	0x3f997096	1.1987484
219	0x3d9feb33	0.078085326
220	0x3db8b40a	0.09018715
221	0x3dc9cf8f	0.09854042
222	0x3dde9a4d	0.10869274
223	0xbe0c0a9d	-0.13675924
224	0xbdee4315	-0.11633889
225	0x3d9b474d	0.07581959
226	0x3e5b9561	0.21443702
227	0x3dba08a1	0.09083677
228	0xbe17ce64	-0.14824826
229	0xbe63bb71	-0.22239472
230	0xbf7713b0	-0.96514416
231	0x3d554e49	0.05207661
232	0xbd988951	-0.07448066
233	0x3e11c2cc	0.14234465
234	0x3e1425ee	0.14467594
235	0xbe19a3f5	-0.15003951
236	0x3de41d35	0.11138383
237	0x3d2326aa	0.039831795
238	0x3ea93d9a	0.3305481
239	0xbda2aec4	-0.0794349
240	0xbd6b93ed	-0.05751412
241	0xbe067618	-0.13130987
242	0xbbad7fda	-0.005294782
243	0x3cb27df5	0.021788577
244	0xbd8d7c83	-0.06908514
245	0xbec53b39	-0.38521746
246	0xbd73d48c	-0.059528872
247	0x3c166e32	0.009181546
248	0xbe392629	-0.18080963
249	0xbdbfc097	-0.093629055
250	0xbe7c667d	-0.24648471
251	0x3da1dddc	0.079036444
252	0xbdf7fd66	-0.12108879
253	0x3d5d8161	0.054078463
254	0x3d406459	0.0469707
255	0xbe32284a	-0.17398182

fc2.bias f4 [64]
0	0xbd1d91f0	-0.038469255
1	0x3e107b04	0.14109427
2	0x3eb99927	0.36249658
3	0x3d3bf260	0.045885444
4	0x3df62cf6	0.12020294
5	0xbdace988	-0.0844298
6	0xbcb236bd	-0.021754617
7	0xbd4111ec	-0.047136232
8	0x3e4bd5e5	0.19905813
9	0x3ed4c377	0.41555378
10	0xbdaa5965	-0.08317832
11	0x3e999fdd	0.30004779
12	0x3ea50ed7	0.32237884
13	0xbdd4acbc	-0.10384509
14	0xbda5de42	-0.08099033
15	0x3df5e556	0.12006633
16	0xbce1b7e6	-0.02755351
17	0x3d1270c0	0.035752058
18	0xbc055d6a	-0.008139947
19	0x3ebdcec4	0.37071812
20	0x3ebd43d4	0.3696581
21	0x3ef547fc	0.47906482
22	0xbe43f7c8	-0.1913749
23	0xbc42d6fd	-0.0118920775
24	0xbdae1b7a	-0.085013345
25	0xbde49bf9	-0.11162562
26	0x3d83f9f9	0.06444163
27	0xbced7f9d	-0.028991515
28	0x3d19cedc	0.037550792
29	0x3e82678d	0.25469628
30	0x3d7af4d2	0.061268635
31	0x3e3f8388	0.18702519
32	0x3d3ec1dd	0.0465716
33	0x3e0222b5	0.12708552
34	0x3e964ece	0.29356998
35	0x3d522cde	0.05131232
36	0xbda9b7fa	-0.08287044
37	0xbd481372	-0.04884667
38	0x3ef3f1ea	0.47645503
39	0x3c3e849f	0.011628299
40	0xbda82780	-0.08210659
41	0x3efc009a	0.4921921
42	0x3eb02a80	0.34407425
43	0xbd90eb1e	-0.07076095
44	0x3e401c0b	0.18760698
45	0xbe1a239f	-0.15052651
46	0x3e9bff13	0.30468044
47	0xbdad89d0	-0.08473551
48	0x3e0131bc	0.12616628
49	0xbdf0530f	-0.11734592
50	0xbdc3ac96	-0.095544025
51	0x3ea974fd	0.33097067
52	0xbd6206a6	-0.05518212
53	0x3d069bf9	0.03286359
54	0x3e801c29	0.25021484
55	0xbd84f1a5	-0.064914025
56	0xbe8b4959	-0.27204397
57	0xbda998fa	-0.08281131
58	0x3c175ef9	0.009238952
59	0xbc9ad292	-0.018899236
60	0xbd25d71f	-0.04048836
61	0x3e884490	0.2661481
62	0x3dd1b5a7	0.102397256
63	0xbe2243bb	-0.1584615

fc3.weight f4 [4, 64]
0	0x3f0195f6	0.5061945
1	0x3e4bfca0	0.19920588
2	0x3dfb4837	0.12269633
3	0xbd08e755	-0.03342374
4	0x3e2ab3b7	0.16670118
5	0x3e8f0188	0.27930856
6	0x3ea91802	0.3302613
7	0xbe8d20b4	-0.27564013
8	0x3dd6c9b1	0.10487688
9	0x3e05124a	0.12995258
10	0xbeb433d5	-0.35195795
11	0x3e8c0829	0.27349976
12	0x3de14e46	0.110012576
13	0xbd463469	-0.048389826
14	0xbd570062	-0.0524906
15	0xbe053395	-0.13007958
16	0xbc2e745c	-0.010647859
17	0x3ddd73a4	0.10813072
18	0x3dfe406b	0.124146305
19	0x3e605076	0.21905693
20	0x3e255c17	0.1614841
21	0x3e07dc42	0.13267615
22	0x3d96faf1	0.07372082
23	0x3e6bf843	0.23043923
24	0xbdbd9bc1	-0.09258223
25	0xbd64aaac	-0.055826828
26	0xbed2a9ab	-0.4114507
27	0x3dc1a748	0.094557345
28	0x3ec7984b	0.38983378
29	0x3d34857c	0.044072613
30	0xbec3b693	-0.3822523
31	0x3e202df5	0.15642531
32	0x3d16d2f1	0.036822263
33	0x3e184c0b	0.14872758
34	0x3dfd9295	0.12381474
35	0x3eb6d4e6	0.35709304
36	0x3b9ae814	0.004727373
37	0xbe202c3e	-0.15641877
38	0x3e84147b	0.25796875
39	0x3eaa21e9	0.33228996
40	0x3e3fc850	0.18728757
41	0x3e1eb910	0.15500283
42	0x3dc47eec	0.09594521
43	0x3e8c4f0f	0.27404067
44	0x3e0df17d	0.13861652
45	0xbe37092a	-0.1787459
46	0x3e4f0706	0.20217523
47	0x3f2668c0	0.65003586
48	0x3dad8f7f	0.08474635
49	0x3e25ef41	0.1620455
50	0xbdd457de	-0.10368322
51	0x3ec63b51	0.3871713
52	0x3e43e5c5	0.19130619
53	0x3d0de99e	0.034646623
54	0x3cd5ab78	0.02608274
55	0x3e7c4d2c	0.24638814
56	0xbda5e114	-0.08099571
57	0xbdd0b7c3	-0.101913
58	0x3e32489c	0.17410511
59	0x3e36d265	0.17853697
60	0xbe05ea84	-0.13077742
61	0x3e0d2afe	0.13785931
62	0x3e26a330	0.16273189
63	0x3db6ae3a	0.0891995
64	0x3e44028c	0.19141597
65	0x3dd87fc5	0.10571245
66	0x3e661bec	0.22471589
67	0x3e00d58e	0.12581465
68	0x3e3013f7	0.17195116
69	0x3e026d5e	0.12737033
70	0x3ef7917f	0.48353192
71	0xbe5acab2	-0.21366385
72	0x3d659e73	0.056059312
73	0x3dfe2bfb	0.12410732
74	0xbbb57540	-0.005537659
75	0x3e4f1fcb	0.20226972
76	0x3dbc4758	0.09193295
77	0xbe286ca2	-0.1644769
78	0xbc8eee2d	-0.017447555
79	0x3c713dbf	0.014724194
80	0xbdeb195a	-0.11479445
81	0x3e01e5fb	0.12685387
82	0x3e7d9335	0.24763186
83	0x3e02a9d7	0.12760101
84	0x3e1cdd0d	0.15318699
85	0x3e80cba4	0.25155365
86	0x3de38519	0.11109371
87	0x3e0b7a82	0.13620952
88	0x3da62f37	0.08114474
89	0xbdf9970d	-0.12187014
90	0x3d9d2a5c	0.07674095
91	0x3e202a36	0.15641102
92	0x3e963644	0.29338276
93	0x3e3ebb2a	0.18626085
94	0x3d9c8b99	0.07643814
95	0x3e08ee9c	0.13372272
96	0x3e36edd2	0.17864159
97	0x3e92f916	0.28705662
98	0x3e3c0982	0.18363002
99	0x3e9ad7ea	0.30242854
100	0x3d83ea4d	0.06441174
101	0xbd8364db	-0.06415721
102	0x3e6d2119	0.23157157
103	0x3e8a2325	0.26979938
104	0x3d8bb289	0.06821162
105	0x3e2a99d6	0.16660246
106	0x3ce8def7	0.02842663
107	0x3d705a95	0.058680136
108	0x3db324a3	0.08747222
109	0xbe27da77	-0.16391931
110	0x3e27fdcc	0.1640541
111	0x3edf4344	0.43606007
112	0x3db7194e	0.08940373
113	0xbe05d087	-0.13067828
114	0xbcae5d8b	-0.02128484
115	0x3e85eb71	0.2615619
116	0x3de62968	0.11238366
117	0x3dd36ffa	0.10324092
118	0x3d3d9a4e	0.046289735
119	0x3e71961d	0.2359242
120	0xbe37b565	-0.1794029
121	0x3bb34b5d	0.0054716305
122	0x3e07f61e	0.1327748
123	0x3e9b4b48	0.30330873
124	0x3c29d93e	0.010366736
125	0x3d201e9c	0.03909169
126	0x3e043296	0.12909922
127	0xbe0df7a6	-0.13864002
128	0x3dc02cda	0.09383555
129	0x3dcae4df	0.09906935
130	0x3e47ad91	0.19499804
131	0x3eb97d04	0.36228192
132	0x3d81e3bd	0.06342266
133	0x3d4791ca	0.04872302
134	0x3f01964d	0.50619966
135	0xbe1349fd	-0.14383693
136	0x3d3cd72b	0.046103638
137	0x3e0813a5	0.13288744
138	0xbe91689b	-0.2840012
139	0x3e55689f	0.20840691
140	0x3e54fc9c	0.20799488
141	0xbe62ee49	-0.22161211
142	0xbd6d1dd1	-0.057889763
143	0x3e152949	0.1456653
144	0x3d00b19c	0.03141938
145	0x3e1aa392	0.1510146
146	0x3cac8ce3	0.021063274
147	0x3ddb674d	0.107130624
148	0x3dfb91ee	0.12283693
149	0x3e4d6317	0.20057331
150	0xbe6bc085	-0.23022659
151	0x3dfc94f2	0.123330966
152	0x3e9ba6fe	0.30400842
153	0xbd95e3d5	-0.07318846
154	0xbca9d134	-0.020729639
155	0x3d577d51	0.052609745
156	0x3e4671bc	0.19379324
157	0x3dc41caf	0.095757835
158	0x3d856cf0	0.06514919
159	0x3d1741f8	0.036928147
160	0xbdd22944	-0.10261777
161	0x3d52e953	0.051492047
162	0x3e60a320	0.21937227
163	0x3e42a470	0.1900804
164	0x3e6d6de2	0.23186448
165	0xbdcd739e	-0.10031818
166	0x3e64c7d5	0.22341855
167	0x3e8bfa59	0.27339438
168	0xbe750a79	-0.23929776
169	0x3e3dcc0d	0.1853487
170	0x3e331068	0.17486727
171	0x3b8fa9ba	0.0043842467
172	0xbc43c0f1	-0.011947856
173	0xbe249568	-0.16072619
174	0x3e45b0ea	0.19305769
175	0x3f50c3a4	0.81548524
176	0x3eb3b23f	0.35096928
177	0x3b973660	0.0046146363
178	0x3db7b735	0.08970491
179	0x3e93e326	0.28884238
180	0xbdf96e91	-0.12179292
181	0x3dee93da	0.11649294
182	0x3dec0391	0.11524118
183	0xbe1deeb6	-0.15423092
184	0xbe07f752	-0.13277939
185	0xbda145d6	-0.07874648
186	0xbe1e121f	-0.154366
187	0x3d91e373	0.071234606
188	0xbe2bc79b	-0.16775362
189	0x3db47536	0.08811419
190	0x3ebcfbb6	0.3691079
191	0xbe9c15fa	-0.30485517
192	0x3ec45a40	0.38350105
193	0x3e3baa2f	0.18326639
194	0x3def8818	0.1169588
195	0xbd486d41	-0.048932318
196	0xbdf3da59	-0.11906881
197	0x3f10d81b	0.5657975
198	0x3e884cc2	0.26621062
199	0xbde3daca	-0.11125715
200	0x3e1137b0	0.141814
201	0x3e5cd7cd	0.21566696
202	0x3e05db62	0.13071969
203	0xbdefdbe6	-0.11711864
204	0x3e3dc2d6	0.18531355
205	0xbd961bad	-0.073294975
206	0x3d36a4d8	0.0445908
207	0x3d5000f1	0.050782148
208	0x3df07072	0.11740197
209	0x3e0521af	0.1300113
210	0x3f0d41e6	0.5517868
211	0x3e51205d	0.20422502
212	0x3d85105e	0.064972624
213	0x3e734677	0.23757349
214	0xbd4e7d64	-0.05041255
215	0x3eb837bc	0.35980022
216	0xbba17543	-0.0049273088
217	0xbcd2f811	-0.025753053
218	0xbd9fa832	-0.077957526
219	0x3e6e5824	0.2327581
220	0x3eaa792e	0.33295578
221	0xbcfac348	-0.030610695
222	0xbb6e9c9e	-0.003640927
223	0x3de57293	0.11203494
224	0x3dd1df67	0.10247689
225	0x3e9e431e	0.3091058
226	0x3ced4ade	0.028966364
227	0x3e242cf7	0.16032778
228	0xbe8fe4a9	-0.2810414
229	0x3dee2c23	0.11629512
230	0x3e8018c6	0.250189
231	0x3dd62372	0.104559794
232	0x3e70a461	0.23500206
233	0x3e4892fe	0.19587323
234	0x3e2b3f4c	0.16723365
235	0xbec95a97	-0.39326927
236	0xbc29b6c1	-0.010358513
237	0xbd903050	-0.07040465
238	0x3e27fc3b	0.16404812
239	0x3e5c0242	0.21485236
240	0x3de2a27b	0.11066147
241	0xbea95ed1	-0.33080152
242	0x3d95ac70	0.073082805
243	0x3ea45d49	0.3210242
244	0xbe0d3a68	-0.13791811
245	0xbdd2c5e2	-0.102916494
246	0x3e093dcc	0.1340248
247	0x3ed0e0fc	0.4079665
248	0xbd02c2d7	-0.031924095
249	0x3d88bb47	0.06676345
250	0xbf1268de	-0.57191265
251	0xbe0efa09	-0.13962568
252	0xbe060bc7	-0.1309043
253	0x3d5e0a53	0.054209065
254	0xbd0faf63	-0.03507937
255	0xbde504aa	-0.1118253

fc3.bias f4 [4]
0	0x3ea66f12	0.32506615
1	0x3e8f20a1	0.2795458
2	0x3e4a5dab	0.19762294
3	0x3e2bb236	0.16767201
